src/LSTM.ckpt (torch, 4695 bytes, 5 tensors)

lstm.weight_ih_l0 f4 [40, 5]
0	0x3eabeef6	0.3358075
1	0x3e9c966f	0.30583522
2	0x3f22a90a	0.63539183
3	0x3eaa1cd4	0.3322512
4	0x3f9febc8	1.249383
5	0xbe3605ab	-0.177756
6	0x3e1b1b68	0.15147173
7	0x3ea35139	0.31897905
8	0xbdd3b479	-0.10337157
9	0xbe929638	-0.28630233
10	0x3e64cbc2	0.22343352
11	0x3ee909e0	0.45515347
12	0x3e03a518	0.12855947
13	0x3effa200	0.49928284
14	0xbd5815d8	-0.052755207
15	0x3e6f67fb	0.23379509
16	0x3eae611c	0.34058464
17	0x3e54920a	0.20758834
18	0x3eaa9a2a	0.33320743
19	0x3e943c48	0.2895224
20	0x3e7a90a1	0.24469234
21	0x3d8a37c8	0.06748921
22	0x3e615fda	0.2200922
23	0x3ec2fd02	0.38083655
24	0x3e42f34b	0.19038121
25	0x3ef44738	0.47710586
26	0x3efc33d4	0.49258292
27	0x3eccba61	0.39985946
28	0x3e99e0a4	0.300542
29	0x3ef647ef	0.48101756
30	0xbdb9face	-0.0908104
31	0x3e7a560a	0.24446884
32	0xbed2fb85	-0.4120752
33	0xbec6310d	-0.38709298
34	0xbc9e8304	-0.019349582
35	0x3e053686	0.1300908
36	0x3edac654	0.42729437
37	0x3e88a440	0.26687813
38	0x3e7de43f	0.247941
39	0x3e79d1a5	0.2439638
40	0x3ed2d59c	0.41178596
41	0x3ef7924a	0.48353797
42	0xbe5bbc26	-0.21458492
43	0x3ea0ee25	0.3143169
44	0x3f03d648	0.5149884
45	0xbe8da022	-0.27661234
46	0xbe8bcfe3	-0.27307042
47	0xbf07e3d5	-0.5308202
48	0xbe982d66	-0.29722136
49	0xbc848406	-0.016176235
50	0x3e492c34	0.19645768
51	0x3e9181bc	0.28419292
52	0xbe23dab1	-0.16001393
53	0xbe8902f3	-0.26760063
54	0x3f563f45	0.8369029
55	0xbe61fc5d	-0.22068925
56	0x3e7f9f06	0.24963006
57	0x3d810bdd	0.06301091
58	0xba2fd809	-0.0006707912
59	0xbf035a45	-0.51309615
60	0x3e77a0d3	0.24182443
61	0x3ec88d0f	0.3917012
62	0x3e9307b7	0.28716823
63	0xbe28d856	-0.16488776
64	0x3e229516	0.15877184
65	0x3ea473b8	0.32119536
66	0xbe3d61e0	-0.18494368
67	0x3dfcb05f	0.123383276
68	0x3d983883	0.07432654
69	0x3ed4ffcc	0.41601408
70	0xbd10bd8e	-0.035337023
71	0x3e847771	0.25872377
72	0x3e85ae30	0.26109457
73	0x3e258c04	0.16166693
74	0x3d972b6f	0.07381331
75	0x3e5ac939	0.21365823
76	0xbe23e6d9	-0.1600603
77	0xbe9088f7	-0.28229496
78	0x3e7ac342	0.24488547
79	0x3f07b66c	0.5301273
80	0xbeca2dcf	-0.39488074
81	0xbd8a9790	-0.067671895
82	0xbe90a147	-0.28248045
83	0xbe0b6159	-0.13611354
84	0xbd6d5bcb	-0.05794887
85	0x3e281270	0.16413283
86	0xbe14c856	-0.14529547
87	0x3df43417	0.11923998
88	0xbd68948b	-0.056782287
89	0x3db71ade	0.089406714
90	0x3eaaab93	0.33334026
91	0x3e7c4168	0.24634326
92	0x3e144ab6	0.14481625
93	0xbe720eaa	-0.23638406
94	0x3ecf1e30	0.4045272
95	0xbc6db10a	-0.014507541
96	0xbebf11d0	-0.37318277
97	0xbbe1ea1c	-0.006894363
98	0x3d0364d2	0.03207857
99	0x3c4f1c59	0.012641036
100	0xbf6a711b	-0.91578835
101	0xbeebc461	-0.46048263
102	0xbe878cc8	-0.26474595
103	0x3cb49f48	0.022048607
104	0xbd8f900d	-0.070098974
105	0xbd47b7b0	-0.048759162
106	0x3e15f9da	0.14646092
107	0xbd946d80	-0.07247448
108	0xbe3c5e5b	-0.18395369
109	0xbe5a4a19	-0.21317329
110	0x3dff6d9e	0.1247208
111	0x3e9fad5e	0.31186956
112	0x3e389097	0.18023907
113	0x3ec2bcd6	0.38034695
114	0x3ed1a086	0.40942782
115	0xbf000192	-0.50002396
116	0xbee3254a	-0.44364387
117	0xbd3223ad	-0.043491054
118	0xbeb0e609	-0.34550503
119	0x3ed9449d	0.4243516
120	0xbdb08853	-0.08619752
121	0xbeb6e35c	-0.35720336
122	0xbed36dea	-0.41294795
123	0xbe29c493	-0.16578893
124	0xbd9d778e	-0.07688819
125	0xbf0a1feb	-0.5395495
126	0xbe4ac580	-0.19801903
127	0xbeca55af	-0.39518496
128	0xbe56529a	-0.20929947
129	0xbdc2b6f4	-0.09507552
130	0xbebe6406	-0.37185687
131	0xbe873ad4	-0.2641207
132	0xbd3aecf6	-0.04563614
133	0xbeca3b43	-0.39498338
134	0x3d8aa68c	0.067700475
135	0x3e8408bb	0.2578791
136	0xbc88291a	-0.016621161
137	0x3e936d14	0.28794158
138	0x3ecd6628	0.40117002
139	0x3d8670e8	0.06564504
140	0x3e93be41	0.2885609
141	0x3eb14831	0.3462539
142	0x3ef0b3f5	0.47012296
143	0x3e50d6bb	0.20394413
144	0xbdf46fd6	-0.119353935
145	0xbd39719b	-0.04527436
146	0xbe746708	-0.23867428
147	0x3e0b936b	0.13630454
148	0xbe432b48	-0.19059479
149	0x3e1ce1b7	0.15320478
150	0x3f607e33	0.87692565
151	0x3ef9f3bb	0.48818764
152	0x3dc765f3	0.09736242
153	0x3ef4f1bc	0.4784068
154	0x3f8b1405	1.0865484
155	0xbd581605	-0.052755374
156	0x3db933af	0.09043061
157	0x3eae0283	0.3398629
158	0xbd808c89	-0.06276805
159	0xbf035afd	-0.5131071
160	0x3ed01aaa	0.40645343
161	0x3eefd9aa	0.46845752
162	0x3e47f015	0.19525178
163	0x3de5807a	0.112061456
164	0x3ec9d9e1	0.3942404
165	0x3ecfa4f2	0.4055553
166	0x3e90a115	0.28247896
167	0x3ea47ce4	0.32126534
168	0x3e4a646f	0.19764875
169	0x3f06c444	0.5264323
170	0x3f18bd87	0.59664196
171	0x3e1e1627	0.15438138
172	0x3d92f59a	0.07175751
173	0xbd756519	-0.059910867
174	0xbd082a1a	-0.033243276
175	0x3f23a962	0.6393033
176	0x3ec77231	0.3895431
177	0x3ebe1d0b	0.37131533
178	0x3c56b254	0.01310404
179	0x3f885e07	1.0653695
180	0xbe3fcd2f	-0.18730615
181	0x3dd67382	0.1047125
182	0xbe63f39f	-0.22260903
183	0xbe774699	-0.24148025
184	0x3dfbba18	0.12291354
185	0x3f543ae6	0.8290237
186	0x3e9f985c	0.31170928
187	0x3dec8887	0.11549478
188	0x3e815c23	0.25265607
189	0x3f1e15b0	0.6175184
190	0x3ef81b5f	0.48458382
191	0x3d5295d0	0.051412404
192	0x3e9fc941	0.31208232
193	0x3dfcc955	0.123430885
194	0x3e623111	0.2208903
195	0x3d1f4c04	0.038890854
196	0xbf056380	-0.5210495
197	0xbdc6a1bd	-0.09698818
198	0xbee46dc1	-0.44614986
199	0xbeac4554	-0.33646643

lstm.weight_hh_l0 f4 [40, 10]
0	0xbe7ae54f	-0.24501537
1	0xbe302005	-0.17199714
2	0x3f0edea4	0.5580847
3	0xbe8899fa	-0.26679975
4	0xbe78fefc	-0.24316019
5	0xbdc6c639	-0.09705777
6	0xbeb235aa	-0.34806567
7	0x3cd8a3a8	0.026445225
8	0x3ec57a5e	0.3856992
9	0xbcb228d2	-0.02174798
10	0xbe75df4e	-0.24010965
11	0xbe7c9129	-0.24664749
12	0x3de277d5	0.110580124
13	0x3e16474d	0.14675637
14	0xbc3b2405	-0.011422162
15	0xbe8ccb2f	-0.27498767
16	0xbe00b73e	-0.12569901
17	0xbe16d13a	-0.14728251
18	0xbed2288c	-0.4104656
19	0xbe33f9b2	-0.1757572
20	0xbe1a0e02	-0.15044406
21	0x3e23ff44	0.16015345
22	0xbe0accca	-0.13554683
23	0xbda6c5d5	-0.08143202
24	0xbe875e03	-0.26438913
25	0xbd131a4e	-0.035913758
26	0xbb74f752	-0.003737886
27	0x3d47b216	0.04875382
28	0xbd8c46c4	-0.06849435
29	0xbe8f996b	-0.28046736
30	0xbd8f8639	-0.07008023
31	0x3d1e1f65	0.03860416
32	0xbbf6989d	-0.007525517
33	0xbd4754cc	-0.048664853
34	0x3d0c9bc7	0.03432825
35	0x3e3078b1	0.1723354
36	0x3e44ccd8	0.19218767
37	0xbec9cd05	-0.3941423
38	0xbe3571c8	-0.17719185
39	0xbe0f9972	-0.14023378
40	0xbe352db3	-0.17693214
41	0x3ebe8f6e	0.37218803
42	0xbe8c1348	-0.2735846
43	0x3c9e8a20	0.019352973
44	0x3c64ed2f	0.013972565
45	0x3cc0aa23	0.023518628
46	0xbe5a0a1e	-0.21292922
47	0xbe116dc6	-0.14202031
48	0xbe8ce361	-0.27517226
49	0xbcc5e064	-0.02415485
50	0xbc791d10	-0.015204683
51	0x3e92a60b	0.28642306
52	0x3e8a8702	0.27056128
53	0xbe5b748b	-0.21431176
54	0xbdf18801	-0.11793519
55	0xbe895b6b	-0.2682756
56	0x3da29be8	0.07939893
57	0x3e42a5d2	0.19008568
58	0xbd4f42b3	-0.05060072
59	0x3e976603	0.29570016
60	0xbd76d827	-0.060264733
61	0x3ea97036	0.33093423
62	0xbe991794	-0.299008
63	0x3e5ac97a	0.2136592
64	0x3f0eaafe	0.55729663
65	0x3e93d008	0.28869653
66	0x3e18bd4b	0.1491596
67	0xbeb3aa55	-0.3509089
68	0xbdb47a0b	-0.0881234
69	0x3e4b852c	0.1987502
70	0xbe870c25	-0.26376453
71	0xbe1b1b4a	-0.15147129
72	0xbe4d07f3	-0.20022564
73	0xbdf8d31d	-0.12149642
74	0x3e5c51c0	0.2151556
75	0xbe980575	-0.29691663
76	0xbdf0f99d	-0.1176636
77	0xbe115266	-0.14191589
78	0x3d2a69d8	0.041604847
79	0x3e3b57f5	0.18295272
80	0x3eb1862d	0.3467268
81	0x3e3f6959	0.1869253
82	0x3d642a5c	0.05570446
83	0x3e6bd133	0.23029022
84	0x3d92d716	0.07169931
85	0xbde962be	-0.11395787
86	0x3d00d310	0.031451285
87	0xbeb57657	-0.3544185
88	0xbe7f1869	-0.24911655
89	0xbe83eabe	-0.25765032
90	0xbe0bd929	-0.13657059
91	0x3da27d5c	0.07934067
92	0xbd94243e	-0.07233475
93	0x3cca9448	0.02472891
94	0x3ed3bbce	0.4135422
95	0xbe203af5	-0.1564749
96	0x3ea2c7b5	0.3179299
97	0xbd7d09de	-0.06177699
98	0x3d9fcefc	0.07803151
99	0xbe3ef6bc	-0.18648809
100	0xbe30a2d5	-0.17249615
101	0x3ebe0044	0.37109578
102	0x3e14d0f7	0.14532839
103	0xbc275e12	-0.010215299
104	0x3ee0e8e2	0.43927675
105	0xbe9f01cf	-0.31056067
106	0xbe06a390	-0.13148332
107	0xbe3a8fd3	-0.18218927
108	0xbbddfefc	-0.0067747813
109	0x3e704719	0.23464622
110	0x3b1eaa35	0.0024210338
111	0x3d7674a6	0.06016984
112	0xbe2701a8	-0.16309226
113	0x3e6f8626	0.23391017
114	0xbdb8e973	-0.09028902
115	0x3d5186ba	0.051153876
116	0x3dc3308d	0.09530745
117	0x3e1009dd	0.14066263
118	0xbeb587b9	-0.3545511
119	0x3e7e56ef	0.2483785
120	0xbd8b8441	-0.06812335
121	0x3ec9de76	0.39427537
122	0xbe001961	-0.12509681
123	0x3e9a8012	0.30175835
124	0xbcfe0081	-0.0310061
125	0x3e8977ed	0.2684931
126	0x3e898792	0.26861244
127	0xbe80ae58	-0.25133014
128	0xbe382188	-0.17981541
129	0xbd2b54c5	-0.04182889
130	0x3db1224a	0.08649118
131	0x3eb0fb3f	0.34566686
132	0xbc8e0f9a	-0.017341424
133	0x3eb9232b	0.36159644
134	0x3e414298	0.1887306
135	0xbe1ec8e8	-0.15506327
136	0x3e4e1e0b	0.20128648
137	0xbe81f45e	-0.2538175
138	0xbd372404	-0.04471208
139	0xbe3b7815	-0.18307526
140	0x3ed31c8b	0.41232714
141	0xbd459a14	-0.048242643
142	0x3d822fc2	0.06356765
143	0x3cd2dad0	0.025739104
144	0xbdeae0d8	-0.11468667
145	0x3eace366	0.3376724
146	0x3dae71d7	0.08517807
147	0x3d5e6541	0.054295782
148	0xbdd712ab	-0.105016075
149	0xbe175c18	-0.14781225
150	0x3ecc5915	0.39911714
151	0x3ed37ef4	0.41307795
152	0xbead3c7c	-0.33835208
153	0xbd64d962	-0.055871375
154	0x3c083f27	0.008315838
155	0xbc8c9f10	-0.01716569
156	0xbeacba88	-0.33736062
157	0xbe94f92f	-0.29096362
158	0x3d5d6c30	0.054058254
159	0xbc3e60d0	-0.011619762
160	0x3ecc36df	0.39885613
161	0x3db69f14	0.089170605
162	0xbed2ae35	-0.41148534
163	0x3f29b407	0.66290325
164	0x3f05878f	0.5215997
165	0x3dc3e4d6	0.09565131
166	0xbe7ad79c	-0.24496311
167	0xbee54929	-0.4478238
168	0xbea8e329	-0.3298581
169	0x3e9874c4	0.29776585
170	0xbe8f42e9	-0.27980736
171	0xbbfb6016	-0.0076713664
172	0xbe97fe4f	-0.2968621
173	0xbe446e03	-0.19182591
174	0x3b5f4982	0.0034070914
175	0xbd5b341a	-0.053516485
176	0xbce0d767	-0.027446462
177	0x3e088ea1	0.13335659
178	0xbea36521	-0.31913093
179	0x3db7f2ee	0.08981882
180	0x3e039a5a	0.12851849
181	0x3dec14b1	0.11527384
182	0x3d941f89	0.07232577
183	0x3e40b6f4	0.18819791
184	0x3df35602	0.11881639
185	0x3ec7b0ae	0.39001983
186	0x3d7db9dd	0.06194483
187	0xbf0cccec	-0.55000186
188	0xbd81dbd2	-0.063407555
189	0xbe48e95d	-0.19620271
190	0x3e40b0cb	0.18817441
191	0x3e265698	0.1624397
192	0xbde7c0fc	-0.11316106
193	0xbad4056d	-0.0016175933
194	0x3e00dc34	0.12584001
195	0x3e2b7807	0.16745006
196	0x3d3d502c	0.046219036
197	0xbd33322e	-0.043749027
198	0xbeb6c3f3	-0.35696372
199	0x3dc6f5ff	0.09714889
200	0xbf412411	-0.7544566
201	0xbecdee1b	-0.40220723
202	0x3e1b29e3	0.15152697
203	0x3cacf2fb	0.021111956
204	0xbe3198d7	-0.1734346
205	0xbde889ac	-0.11354384
206	0x3db894df	0.0901277
207	0x3f23d8b8	0.6400256
208	0x3e264ecc	0.16240996
209	0xbdac6660	-0.08417964
210	0x3da6fde8	0.081538975
211	0x3d8fe9b0	0.07026994
212	0xbed04f9d	-0.4068574
213	0x3d8f37e6	0.06993084
214	0x3d6a5089	0.05720571
215	0x3e691cde	0.22764918
216	0x3ddb70d5	0.107148804
217	0xbe2b1fca	-0.16711345
218	0x3a2db382	0.0006626175
219	0xbcc321e1	-0.023819866
220	0x3eaad825	0.3336803
221	0x3eb2802d	0.34863415
222	0xbe2b8a7b	-0.16752045
223	0x3e01ba50	0.12668729
224	0x3e8c70d0	0.2742982
225	0x3e081c49	0.1329204
226	0x3ded7847	0.11595207
227	0xbe59c1c9	-0.2126533
228	0xbeb276bd	-0.34856215
229	0xbebd2976	-0.36945695
230	0x3c0fb3ea	0.008770922
231	0xbe85e7a9	-0.26153305
232	0xbdb756b8	-0.08952087
233	0x3e315175	0.1731623
234	0x3e9af430	0.30264425
235	0x3e24880f	0.16067527
236	0xbe4df4f1	-0.20112969
237	0x3ea62442	0.32449538
238	0xbc01ef68	-0.007930614
239	0x3e813f8e	0.252438
240	0xbeb48755	-0.352595
241	0xbeb6f2e0	-0.35732174
242	0xbd9f9e35	-0.077938475
243	0xbe948fb1	-0.29015878
244	0x3db17afe	0.08666037
245	0xbe1e184e	-0.15438959
246	0xbe248331	-0.1606567
247	0x3e9ad0a1	0.30237296
248	0x3ea1a385	0.31570068
249	0x3e8d10a3	0.27551755
250	0xbe9a2ade	-0.3011083
251	0x3dc47d62	0.095942274
252	0x3e8462f6	0.2585675
253	0xbe0ec1bf	-0.13941096
254	0xbeafc89d	-0.34332743
255	0xbe70acc7	-0.2350341

lstm.bias_ih_l0 f4 [40]
0	0x3e7d487f	0.24734686
1	0x3dc8a0b6	0.09796278
2	0xbd466db0	-0.04844445
3	0x3eb8ad05	0.36069503
4	0xbc7b6a64	-0.01534519
5	0x3df7c95f	0.12098955
6	0xbd920d50	-0.071314454
7	0xbb18042c	-0.0023195846
8	0x3e8e0d56	0.2774455
9	0xbeb80eb3	-0.35948715
10	0xbecfe960	-0.40607738
11	0xbde2acfd	-0.11068151
12	0xbe8ebc2d	-0.27877942
13	0xbd9917b5	-0.07475225
14	0x3e06f4db	0.13179342
15	0xbe9d95a5	-0.30778232
16	0xbeb988d6	-0.3623721
17	0x3e0242e9	0.12720837
18	0x3e3bfca4	0.18358094
19	0xbdf7c4a3	-0.12098052
20	0xbd5ec4e4	-0.05438699
21	0xbe996eae	-0.29967254
22	0x3e0a1538	0.13484657
23	0xbeae61a9	-0.34058884
24	0x3ba355a8	0.0049845763
25	0xbe3cf893	-0.18454199
26	0x3cf2f5f0	0.029658288
27	0xbd972f64	-0.07382086
28	0xbe6596cd	-0.22420807
29	0xbde54e9e	-0.11196636
30	0xbdb2f045	-0.08737234
31	0xbe140780	-0.14455986
32	0xbccb1fa0	-0.024795353
33	0xbdb9fd75	-0.09081546
34	0x3e924213	0.28566036
35	0xbe2ba2ec	-0.16761369
36	0xbe931545	-0.28727165
37	0x3e1d228d	0.15345211
38	0xbd98f6e8	-0.07468969
39	0xbeca1b79	-0.39474085

lstm.bias_hh_l0 f4 [40]
0	0x3e8330d9	0.25623205
1	0x3d26ee91	0.04075486
2	0xbe5eb52e	-0.21748802
3	0x3e2a196d	0.16611262
4	0x3e6d481b	0.23172037
5	0xbd2320a1	-0.03982604
6	0x3c4048df	0.011736124
7	0xbe9d6f8b	-0.30749163
8	0x3d1d6b49	0.038432393
9	0x3dc70786	0.09718232
10	0xbe3f9fdb	-0.18713324
11	0xbeec25f5	-0.4612271
12	0xbdeb2399	-0.11481399
13	0xbe9299e7	-0.28633043
14	0xbe4ef7a1	-0.2021165
15	0xbe36eabe	-0.17862985
16	0xbd5df3bd	-0.054187525
17	0x3df00a15	0.11720673
18	0xbc0cd9f9	-0.008596891
19	0xbebd7b46	-0.37008113
20	0x3e74c386	0.23902711
21	0x3e1b9ac5	0.15195759
22	0xbd617b5a	-0.055049278
23	0x3e68db84	0.22739989
24	0xbe73c0c8	-0.23804009
25	0x3e34696b	0.17618339
26	0x3b891794	0.004183719
27	0xbd5d0cb4	-0.053967193
28	0x3e93932a	0.28823215
29	0x3eb273da	0.34854013
30	0x3eca9f1e	0.39574522
31	0xbef63166	-0.48084563
32	0x3e5e73a6	0.21723804
33	0xbe3192b8	-0.17341125
34	0x3e2d8dbf	0.16948603
35	0x3e5411f8	0.2070998
36	0xbe3930ec	-0.18085068
37	0xbd1df161	-0.038560275
38	0xbe679ca9	-0.22618355
39	0xbd85e07d	-0.06536958

fc.weight f4 [1, 10]
0	0xbe8ced17	-0.27524635
1	0xbe09c2df	-0.13453244
2	0x3e49746e	0.1967332
3	0xbec38b21	-0.38192084
4	0xbeaf52d2	-0.34242874
5	0xbeef0fe7	-0.4669182
6	0xbe1e1b4f	-0.15440105
7	0x3e4f5ee8	0.20251048
8	0x3ea449df	0.3208761
9	0x3d135cef	0.0359773
